…
k","timestamp":1642645559360,"user_tz":300,"elapsed":234,"user":{"displayName":"Christopher Festa","photoUrl":"https://lh3.googleusercontent.com/a/default-user=s64","userId":"03412190190652379376"}},"outputId":"96fc2eaf-c575-4805-b62b-9abbeb126115"},"execution_count":null,"outputs":[{"output_type":"stream","name":"stdout","text":["Model: \"sequential_4\"\n","_________________________________________________________________\n"," Layer (type)                Output Shape              Param #   \n","=================================================================\n"," conv2d_16 (Conv2D)          (None, 63, 64, 16)        80        \n","                                                                 \n"," max_pooling2d_16 (MaxPoolin  (None, 31, 32, 16)       0         \n"," g2D)                                                            \n","                                                                 \n"," dropout_16 (Dropout)        (None, 31, 32, 16)        0         \n","                                                                 \n"," conv2d_17 (Conv2D)          (None, 30, 31, 32)        2080      \n","                                                                 \n"," max_pooling2d_17 (MaxPoolin  (None, 15, 15, 32)       0         \n"," g2D)                                                            \n","                                                                 \n"," dropout_17 (Dropout)        (None, 15, 15, 32)        0         \n","                                                                 \n"," conv2d_18 (Conv2D)          (None, 14, 14, 64)        8256      \n","                                                                 \n"," max_pooling2d_18 (MaxPoolin  (None, 7, 7, 64)         0         \n"," g2D)                                                            \n","                                                                 \n"," dropout_18 (Dropout)        (None, 7, 7, 64)          0         \n","                                                                 \n"," conv2d_19 (Conv2D)          (None, 6, 6, 128)         32896     \n","                                                                 \n"," max_pooling2d_19 (MaxPoolin  (None, 3, 3, 128)        0         \n"," g2D)                                                            \n","                                                                 \n"," dropout_19 (Dropout)        (None, 3, 3, 128)         0         \n","                                                                 \n"," global_average_pooling2d_4   (None, 128)              0         \n"," (GlobalAveragePooling2D)                                        \n","                                                                 \n"," flatten_4 (Flatten)         (None, 128)               0         \n","                                                                 \n"," dense_4 (Dense)             (None, 3)                 387       \n","                                                                 \n","=================================================================\n","Total params: 43,699\n","Trainable params: 43,699\n","Non-trainable params: 0\n","_________________________________________________________________\n"]}]},{"cell_type":"code","source":["save_best_callback = callbacks.ModelCheckpoint(filepath=audiof
…
